mlsec_improvise_adapt_overcome/src/detector.pth (torch, 88780 bytes, 8 tensors)

conv1.weight f4 [10, 1, 5, 5]
0	0x3d918895	0.07106129
1	0x3e412d16	0.18864855
2	0xbb669977	-0.0035186687
3	0x3e8296bb	0.25505623
4	0x3e371d05	0.17882164
5	0x3e396a5d	0.1810698
6	0x3de8fe61	0.11376644
7	0x3e5dd851	0.2166455
8	0x3e6b7ccf	0.2299683
9	0x3e34a5cc	0.17641371
10	0x3d36ed8b	0.044660132
11	0x3e0ed39e	0.13947913
12	0xbccdb04e	-0.025108483
13	0xbd07b65b	-0.033132892
14	0xbdbe11ae	-0.09280716
15	0x3e1ada3c	0.15122312
16	0x3daff506	0.085916564
17	0x3da7f207	0.0820046
18	0xbe3dc5ad	-0.18532439
19	0x3d2b0801	0.04175568
20	0x3e8aebf7	0.27133152
21	0x3e499084	0.19684035
22	0x3c846fde	0.016166624
23	0x3d78abb4	0.060710624
24	0x3d6c614f	0.05770999
25	0x3e2fd8aa	0.17172495
26	0xbe21efb1	-0.15814091
27	0x3e4d5ff4	0.20056134
28	0x3e13a59b	0.14418642
29	0x3e280f9e	0.16412207
30	0x3e0d86ec	0.13821
31	0xbd2200d6	-0.03955158
32	0x3b2250e9	0.0024767464
33	0x3daecac1	0.08534766
34	0x3c7e00cb	0.015503119
35	0x3e4753fb	0.1946563
36	0xbdd05b71	-0.10173691
37	0x3c9e10aa	0.019295055
38	0xbe020a82	-0.12699321
39	0x3e6bbb88	0.23020756
40	0x3e43da85	0.19126327
41	0x3db9445a	0.0904624
42	0xbdbf7308	-0.09348112
43	0xbd36a278	-0.044588536
44	0x3c1e7254	0.009670813
45	0xbdd572e4	-0.10422304
46	0x3cd42aee	0.025899377
47	0x3e654d81	0.22392847
48	0x3d0be670	0.03415531
49	0xbd8b1a55	-0.06792132
50	0xbdf78382	-0.1208563
51	0x3dee866a	0.11646731
52	0xbe147430	-0.14497447
53	0x3c630191	0.013855354
54	0xbdd1c522	-0.10242678
55	0x3dce74d2	0.100808755
56	0xbc21e580	-0.009881377
57	0xbe83014b	-0.25586924
58	0xbe5f766f	-0.21822523
59	0xbddf1320	-0.1089232
60	0xbe273dc5	-0.16332157
61	0x3ca1f1cd	0.01976862
62	0xbe708bd1	-0.23490836
63	0xbe7a22ee	-0.24427387
64	0xbe216a88	-0.15763295
65	0xbe4ce147	-0.20007811
66	0xbc2dd1a5	-0.010609065
67	0x3d32b755	0.04363187
68	0xbdba25c9	-0.09089238
69	0xbe843cf7	-0.25827762
70	0xbdd61eed	-0.104551174
71	0xbe1dacb6	-0.15397915
72	0xbe71331f	-0.23554657
73	0xbe8f34de	-0.27970022
74	0x3ca65792	0.020305429
75	0xbdf13c01	-0.11779023
76	0x3c937b56	0.018003147
77	0xbe8bbd33	-0.27292785
78	0xbde1aedd	-0.11019681
79	0xbe7d93d1	-0.24763419
80	0xbdc5b3cc	-0.09653434
81	0xbdc7db7b	-0.097586595
82	0xbe9601c3	-0.2929822
83	0xbe76b579	-0.24092664
84	0xbe46ab4f	-0.19401287
85	0xbe899d1c	-0.26877677
86	0xbcfd9f11	-0.030959638
87	0xbe5b499e	-0.21414801
88	0xbd1c8790	-0.03821522
89	0xbcb10ca3	-0.021612471
90	0xbe45d114	-0.19318038
91	0xbe78a923	-0.2428327
92	0xbe6ce5cc	-0.23134536
93	0xbdd452ee	-0.1036738
94	0x3dc968b8	0.09834427
95	0xbc6cdea6	-0.01445738
96	0xbe810405	-0.2519838
97	0x3e16f8e1	0.14743377
98	0x3d896b98	0.06709975
99	0x3c8ea4b4	0.017412521
100	0x3e728817	0.23684727
101	0x3e0cb122	0.13739446
102	0x3e6b7cfa	0.22996894
103	0xbd02d010	-0.031936705
104	0x3db90de1	0.0903585
105	0xbe1821b2	-0.14856604
106	0x3def67f2	0.11689748
107	0xbe0c8a88	-0.1372472
108	0x3c88fda9	0.016722517
109	0x3e054622	0.13015035
110	0x3df0319f	0.117282145
111	0xbdbc75b5	-0.09202138
112	0xbddf7e00	-0.109127045
113	0xbd4d7d73	-0.050168466
114	0x3e4e5d04	0.2015267
115	0x3e51637a	0.20448104
116	0x3d24e833	0.040260505
117	0xbddfdc3c	-0.10930678
118	0xbd4a6c8c	-0.049419925
119	0xbdeaf143	-0.11471798
120	0x3b67e6fe	0.0035385485
121	0xbe2befac	-0.16790646
122	0x3e5081ed	0.20362063
123	0x3e0dc81f	0.13845871
124	0x3e29397a	0.16525832
125	0xbe0b5af8	-0.1360892
126	0xbd2cc4e7	-0.04217997
127	0xbd5f5d15	-0.05453213
128	0x3e0cf0dc	0.13763756
129	0x3e22dfce	0.15905687
130	0x3e899ec1	0.26878932
131	0x3e722c07	0.23649608
132	0x3e81c944	0.25348866
133	0x3dae9a97	0.085255794
134	0x3e5b73dc	0.21430916
135	0xbd1083ef	-0.03528207
136	0x3e76390c	0.24045199
137	0xbdd9ad46	-0.106287524
138	0x3de5d64d	0.11222515
139	0xbe2962fc	-0.16541666
140	0x3e427434	0.1898964
141	0x3e34e0d5	0.17663892
142	0x3cc43aea	0.023953874
143	0x3e47adbd	0.1949987
144	0xbdb35401	-0.08756257
145	0xbda75f9a	-0.081725314
146	0xbd3350b9	-0.043778155
147	0xbe1fc27f	-0.15601538
148	0x3dc1de0b	0.094661795
149	0xbdd7224f	-0.10504591
150	0x3dcda6d3	0.10041585
151	0xbda16737	-0.07881015
152	0x3df178e9	0.1179064
153	0xbb51115d	-0.0031901218
154	0x3e231627	0.15926419
155	0x3d37ba96	0.044855677
156	0x3d4c4643	0.049871694
157	0xbd46c127	-0.04852405
158	0x3bcc626b	0.0062373183
159	0x3ca51fc8	0.020156756
160	0xbc293f21	-0.0103299925
161	0x3d978a59	0.073994346
162	0x3e3f48b5	0.1868008
163	0x3e538ed3	0.20659952
164	0xbe089e66	-0.13341674
165	0x3d4f173c	0.050559267
166	0x3e693732	0.22774962
167	0x3e66ac67	0.22526704
168	0xbc2c1380	-0.010502696
169	0xbe21eada	-0.15812245
170	0x3e0b9766	0.13631973
171	0xbd6ec6a9	-0.058294926
172	0xbd3fa7ee	-0.04679101
173	0x39e310e5	0.000433094
174	0x3d81fde3	0.06347253
175	0xbe2cd9a3	-0.16879897
176	0xbe4a48fa	-0.19754401
177	0x3ce951ec	0.028481446
178	0xbdf03482	-0.11728765
179	0xbd3571ed	-0.0442981
180	0x3ccfb2ea	0.025353868
181	0x3b904de6	0.0044038175
182	0x3db2e10b	0.0873433
183	0x3d385970	0.04500717
184	0x3e1b7d85	0.151846
185	0x3dcee2b2	0.101018324
186	0x3cedc4f6	0.029024582
187	0x3d556dca	0.052106656
188	0xbe1f9d81	-0.15587427
189	0x3d811ef7	0.06304734
190	0xbda742fb	-0.081670724
191	0xbdb2685f	-0.087113135
192	0x3d83bdc5	0.0643268
193	0x3da9fe3c	0.083004445
194	0x3dc868e1	0.09785629
195	0xbd6290b0	-0.055313766
196	0x3e2cca5d	0.1687407
197	0x3d4136a6	0.047171257
198	0x3bdbd854	0.006709138
199	0x3e2646d3	0.16237955
200	0xbe1a2a74	-0.15055257
201	0xbe398b1d	-0.18119474
202	0xbe48c007	-0.19604503
203	0xbd2a8d78	-0.04163882
204	0xbe45f8e7	-0.1933323
205	0xbe17411a	-0.14770928
206	0xbd0af67f	-0.033926483
207	0x3e06b0bb	0.13153355
208	0xbdc0f7ba	-0.0942225
209	0x3e3c954a	0.18416324
210	0xbe02e750	-0.12783551
211	0xbe0c3443	-0.13691811
212	0x3e46df1c	0.19421047
213	0x3dd8fb93	0.10594859
214	0x3e04812a	0.12939897
215	0x3e3508a5	0.17679079
216	0x3dbb3fe8	0.091430485
217	0x3e26d393	0.16291647
218	0x3e4a87f4	0.19778425
219	0x3d5b5bde	0.05355441
220	0xbde909c8	-0.11378819
221	0x3e553f8a	0.2082502
222	0x3e4e285f	0.20132588
223	0xbda3c54b	-0.07996615
224	0x3e3a11b1	0.18170811
225	0x3c071eff	0.008247136
226	0xbe8ca9c0	-0.2747326
227	0xbe7b94fb	-0.2456855
228	0x3b4b49e6	0.0031019389
229	0xbdef230e	-0.11676608
230	0x3d0520f3	0.032502126
231	0xbe497616	-0.19673952
232	0xbe8220ea	-0.25415736
233	0xbe06f0cc	-0.13177794
234	0x3dfc8f24	0.123319894
235	0xbdf9fb1b	-0.12206098
236	0xbdcc87a7	-0.09986811
237	0xbd411c1d	-0.04714595
238	0xbd8a04a1	-0.06739164
239	0xbdc0e3ca	-0.09418447
240	0x3afb7417	0.0019184378
241	0x3dbbfda7	0.0917924
242	0xbd362374	-0.044467404
243	0xbde52998	-0.11189574
244	0xbdb03399	-0.086035915
245	0x3e271935	0.1631821
246	0x3e0f47b4	0.13992196
247	0x3e04a323	0.12952857
248	0x3c7b54e9	0.015340068
249	0xbdffc3cd	-0.12488518

conv1.bias f4 [10]
0	0x3e559600	0.20858002
1	0x3cf285ec	0.029604875
2	0x3e80e774	0.25176585
3	0x3e837f4c	0.25683057
4	0x3ddf21e3	0.10895135
5	0x3e5b8a01	0.21439363
6	0xbe23a9fe	-0.15982816
7	0xbe2105e3	-0.15724902
8	0x3dd7996d	0.105273105
9	0x3e178086	0.14795122

conv2.weight f4 [20, 10, 5, 5]
0	0xbde4e4a3	-0.111764215
1	0xbce453f8	-0.02787207
2	0xbc0e3e58	-0.008681856
3	0xbce84279	-0.02835201
4	0xbde807ea	-0.113296345
5	0xbda4f7ed	-0.080551006
6	0xbdb9efe0	-0.09078956
7	0xba4e7a2e	-0.00078764826
8	0xbb8c28f9	-0.0042773453
9	0xbd9ef7ee	-0.077621326
10	0xbd0938cd	-0.033501435
11	0x3d191955	0.037377674
12	0x3d0b62d3	0.034029793
13	0x3d8810a6	0.066438004
14	0xbd49c390	-0.04925877
15	0x3c7b24f2	0.015328633
16	0xbd0a56aa	-0.033774056
17	0x3b1ae9c4	0.002363787
18	0xbd1295c4	-0.03578736
19	0xbcdc403a	-0.026886094
20	0xbc7b4bd7	-0.015337906
21	0x3cf75563	0.030192083
22	0x3a0c8b2a	0.0005361313
23	0x3bc0a642	0.0058791945
24	0xbc648e61	-0.013949961
25	0xbd556b28	-0.052104145
26	0x3cd1cc01	0.025609972
27	0xbca0dac4	-0.019635566
28	0xbc8a85f6	-0.01690958
29	0xbd90646e	-0.070504054
30	0xbd56264a	-0.05228261
31	0xbc2b09ad	-0.010439319
32	0xbd375066	-0.04475441
33	0x3d40ca00	0.047067642
34	0x3ceac201	0.028656961
35	0xbc97943d	-0.018503303
36	0xbd1d8184	-0.038453594
37	0x3d107218	0.03526506
38	0x3bfe4a21	0.0077603017
39	0x3cea6f76	0.028617602
40	0x3c05f2ef	0.008175596
41	0x3d1a8965	0.037728686
42	0xbcd3ba44	-0.025845654
43	0x3c871d55	0.016493479
44	0x3c2890f9	0.01028847
45	0x3c212997	0.009836576
46	0xbd0bb9c3	-0.034112703
47	0x3d61f8b8	0.055168837
48	0xbd89d87a	-0.06730743
49	0xbd4d58dd	-0.050133575
50	0x3c8b971a	0.017039824
51	0x3d80cbec	0.06288895
52	0xbc7dcc03	-0.015490535
53	0x3da6bf08	0.08141905
54	0x3dbe41ba	0.0928988
55	0x3d31fbbe	0.04345297
56	0x3d9780ca	0.073976114
57	0x3ce22eb4	0.02761016
58	0x3d2820ae	0.04104679
59	0x3d989337	0.07449954
60	0x3d950a71	0.07277382
61	0x3ced4f7a	0.028968561
62	0xbc7ceeaa	-0.015437761
63	0xbc92ee19	-0.0179358
64	0x3dad31d5	0.0845677
65	0x3d2a2a86	0.04154446
66	0xbd331a60	-0.043726325
67	0x3d98663a	0.07441373
68	0xbc4b7c0c	-0.012419712
69	0xbca17388	-0.01970841
70	0x3d1169f9	0.035501454
71	0xbbabb2b0	-0.005239807
72	0x3d14043a	0.036136843
73	0x3ca8366b	0.020533761
74	0x3da968a7	0.08271914
75	0xbccc3a23	-0.024930065
76	0xbc55d7ba	-0.0130519215
77	0x3d67058d	0.056401778
78	0x3d5a06dd	0.0532292
79	0x3d2eea8f	0.04270416
80	0x3d4760ad	0.04867618
81	0x3c911542	0.017710332
82	0x3d94912a	0.0725425
83	0xbca9f860	-0.020748317
84	0x3da01af9	0.078176446
85	0x3ce0cad3	0.027440464
86	0x3d69c2ca	0.05707053
87	0x3d560eb3	0.052260112
88	0x3d7d80be	0.061890356
89	0xbc76a309	-0.015053519
90	0xbb102941	-0.0021997245
91	0xbcd157e4	-0.025554605
92	0xbce1f537	-0.027582748
93	0x3d853593	0.06504359
94	0x3cf060f4	0.029343106
95	0x3dad3567	0.08457451
96	0xbd0ef914	-0.03490551
97	0xbd00c68d	-0.031439353
98	0x3d328c06	0.043590568
99	0x3d1be52d	0.038060356
100	0xbc94d6af	-0.018168775
101	0x3c81d4d9	0.015848564
102	0xbca34e6f	-0.019934861
103	0xbd7edbd5	-0.062221367
104	0xbcd2ca88	-0.02573134
105	0xbd2610bc	-0.040543303
106	0xbce725be	-0.028216239
107	0xbd98ad4e	-0.0745493
108	0x3ba27b1c	0.0049585234
109	0xbc5e7f00	-0.013580084
110	0xbd6e08a5	-0.058113713
111	0x3ce78c7e	0.028265234
112	0x3d0ddb3f	0.034632917
113	0xbd2481aa	-0.04016272
114	0xbd8abc82	-0.06774236
115	0x3c970d8b	0.018439075
116	0xbd5fe835	-0.05466481
117	0x3cebf6a1	0.028804125
118	0x3c4160e5	0.011802887
119	0x3cb8a9ed	0.022541964
120	0xbcd1c7b0	-0.025607914
121	0xbd0e0cd5	-0.034680206
122	0x3c9824cd	0.018572235
123	0x3d57000d	0.052490283
124	0x3d5f1d9c	0.054471597
125	0x3ca34664	0.019931026
126	0xbccf7224	-0.025322981
127	0xbd667422	-0.056263097
128	0xbdb070e3	-0.086152814
129	0xbcc5209c	-0.0240634
130	0xbda52f6d	-0.080656864
131	0x3ce9cf74	0.028541304
132	0x3d2dd463	0.042438876
133	0xbd8800ce	-0.066407785
134	0xbd5a8bf0	-0.05335611
135	0x3c1732bf	0.009228407
136	0x3c8badbf	0.017050622
137	0x3d16de4f	0.036833104
138	0xbd3a3ff5	-0.04547115
139	0xbcea171c	-0.028575473
140	0xbd5b7c7b	-0.05358551
141	0x3cf728a1	0.03017074
142	0x3d2c4a64	0.042063132
143	0xbd743084	-0.05961658
144	0xbcf2ada6	-0.029623818
145	0x3ac216e3	0.0014807846
146	0x3d219bcc	0.03945522
147	0x3d48f12a	0.049058117
148	0xbcb15d9b	-0.02165108
149	0x3b119147	0.0022211836
150	0x3d792619	0.06082735
151	0xbd09627e	-0.033541195
152	0x3d3bf18f	0.045884665
153	0xbbcd8675	-0.006272132
154	0x3c7d37ad	0.015455169
155	0xbd1468cb	-0.03623275
156	0x3d71ef0f	0.059065875
157	0x3d2d2d2d	0.04227941
158	0xbc8e735e	-0.017388996
159	0x3d5780f9	0.052613232
160	0x3d7d5bf3	0.061855268
161	0xbcb9d3ce	-0.022684004
162	0x3d6dc259	0.058046672
163	0xbc7af465	-0.015317057
164	0x3cabf3bd	0.020990247
165	0x3d756b0c	0.05991654
166	0x3d506de7	0.05088606
167	0x3d93d8ba	0.07219072
168	0x37adb7ed	2.0708854e-05
169	0x3cda3b07	0.026639475
170	0xbc901bd4	-0.017591394
171	0x3d25b3db	0.040454727
172	0x3d0a4804	0.033760086
173	0xbd3d6b59	-0.046244953
174	0x3c960b0c	0.018315814
175	0x3bca6dc4	0.006177636
176	0x3d25f66b	0.040518206
177	0xbccca36b	-0.024980268
178	0x3cd17652	0.025569115
179	0xbc218740	-0.009858906
180	0x3b05e2a3	0.0020429275
181	0x3d1c2fb0	0.038131416
182	0xbce3fc31	-0.027830215
183	0xbd1e08c1	-0.038582567
184	0xbcf73791	-0.030177863
185	0xbc903ee9	-0.017608123
186	0x3d882bb7	0.06648963
187	0xbd338394	-0.043826655
188	0x3b768390	0.0037615038
189	0x3d5c620d	0.053804446
190	0xbca67add	-0.020322258
191	0x3cbe4215	0.02322487
192	0xbcc35169	-0.02384253
193	0x3c64c45a	0.0139628295
194	0x3d06ee61	0.03294218
195	0xbbc4a872	-0.0060015256
196	0xbd4e663f	-0.05039048
197	0x3c3aaaba	0.011393243
198	0x3d3936df	0.045218345
199	0xbd1c8f6f	-0.038222726
200	0xbd81ae1f	-0.06332039
201	0xbc040c07	-0.008059508
202	0xbd39835d	-0.045291293
203	0xbc8124bc	-0.015764587
204	0xbb3840fe	-0.002811491
205	0xbccbe25c	-0.02488821
206	0xbca5e626	-0.020251345
207	0x3d2c43ed	0.042056967
208	0xbd012b58	-0.031535476
209	0x39e0f267	0.00042905213
210	0xbc9bfb5f	-0.019040762
211	0x3d8412bd	0.064488865
212	0x3bad5810	0.005290039
213	0x3d823117	0.063570194
214	0x3d611d80	0.054959774
215	0xbc44a04a	-0.0120011065
216	0x3d25dd4e	0.040494256
217	0x3d18704b	0.037216466
218	0xbd627b9f	-0.055293676
219	0xbbd46f90	-0.006483026
220	0x3cbc2c58	0.022970363
221	0x3ceb0d2c	0.028692804
222	0x3d7fd5bb	0.06245969
223	0x3d07ac0e	0.03312307
224	0x3d872415	0.06598679
225	0xbb8a49e2	-0.0042202333
226	0x3d936a37	0.07197993
227	0x3d5eae9c	0.05436574
228	0x3da7d868	0.08195573
229	0x3cbca498	0.023027703
230	0x3d13496a	0.035958685
231	0x3d90fe00	0.07079697
232	0x3cde1a40	0.027112126
233	0xbc1326c0	-0.008981407
234	0xbc39a479	-0.011330717
235	0x3c6f8b41	0.014620603
236	0xbc5a7f3c	-0.013335999
237	0xbc663876	-0.014051547
238	0x3d497707	0.04918578
239	0x3d162372	0.036654897
240	0xbb28d68c	-0.0025762646
241	0x3d60e7be	0.054908507
242	0xbba68495	-0.005081723
243	0xbc72b749	-0.014814206
244	0x3d2181e2	0.039430507
245	0x3d74b1b2	0.059739776
246	0x3d28d1e0	0.041215777
247	0x3c6eae61	0.014567942
248	0x3b278394	0.0025560604
249	0x3da5d405	0.0809708
250	0x3c79f81e	0.01525691
251	0xbcc7e7fd	-0.024402613
252	0x3c9902d5	0.018678108
253	0x3d24714a	0.040147103
254	0x3c0a9565	0.00845847
255	0xbc258f0f	-0.010104909

conv2.bias f4 [20]
0	0x3d34294d	0.0439847
1	0x3d9698be	0.07353352
2	0xb849a814	-4.807867e-05
3	0x3d3bffd9	0.045898292
4	0x3d940402	0.07227327
5	0x3d3617b6	0.044456206
6	0x3ba038c5	0.00488958
7	0xbd7e560f	-0.06209379
8	0x3d3ce0ca	0.046112813
9	0x3be78175	0.007064993
10	0x3cea9643	0.028636103
11	0x3da5d705	0.08097652
12	0xbcd994a3	-0.026560133
13	0xbd7c4db5	-0.061597545
14	0x3d31b89c	0.043388948
15	0xbda84a30	-0.08217275
16	0xbd58996d	-0.052880693
17	0xbd5a31c2	-0.05327011
18	0x3c04ee59	0.008113467
19	0x3d59484b	0.05304746

fc1.weight f4 [50, 320]
0	0xbd1f5719	-0.038901422
1	0xbd5ec968	-0.054391295
2	0xbcca7eca	-0.02471866
3	0x3c87ac13	0.016561544
4	0x3c88b1fa	0.016686428
5	0x3b796b2a	0.003805826
6	0xbd5d0db1	-0.053968135
7	0x3d2dc3a0	0.04242289
8	0x3c0ab438	0.008465819
9	0x3d32d5ef	0.043661054
10	0x3d01f431	0.03172702
11	0x3cbe4dae	0.0232304
12	0xbc7718fa	-0.0150816385
13	0xbc1f5cc0	-0.009726703
14	0x3d358659	0.044317577
15	0xbc9e003c	-0.019287221
16	0x3d97fdbd	0.074214436
17	0xbce27644	-0.027644284
18	0x3d6a478a	0.05719713
19	0xbc9b1f5c	-0.018935852
20	0x3c8cf74d	0.017207766
21	0x3ce859d9	0.028363155
22	0xbd03f5c0	-0.032216787
23	0xbd0ccf95	-0.034377653
24	0x3d3d6322	0.04623712
25	0x3cd2534b	0.025674483
26	0xbc0abae9	-0.008467414
27	0x3af7888f	0.0018885302
28	0x3ca98fae	0.020698395
29	0x3d1f1dc4	0.038846746
30	0xbbec4226	-0.007210034
31	0xbcd9ba7b	-0.026578179
32	0xbc40ebdb	-0.011774982
33	0xbc789533	-0.015172291
34	0x3d1ab9dd	0.03777491
35	0x3cb91002	0.022590641
36	0xbbef602c	-0.0073051658
37	0xbd893b3b	-0.067007504
38	0x3d380b41	0.044932608
39	0x39ea0d50	0.00044641877
40	0x3cdebc1d	0.027189309
41	0xbd28ff40	-0.04125905
42	0xbca022a9	-0.019547777
43	0xbd3afd3c	-0.04565166
44	0x3c7cd149	0.015430757
45	0x3c78f00d	0.015193951
46	0x3d197d51	0.037473027
47	0x3c88a4fb	0.016680231
48	0xbce87417	-0.028375668
49	0xbcb02ae4	-0.021504827
50	0xbba5abdf	-0.005055889
51	0xbcbc2cff	-0.022970675
52	0xbd0d93eb	-0.034564894
53	0x3cb9837d	0.022645706
54	0xbd2fb86f	-0.0429005
55	0xbd52dab8	-0.051478118
56	0x3cc9491a	0.02457099
57	0x3d14b4cf	0.036305245
58	0xbc1ce151	-0.009575204
59	0xbc172976	-0.009226194
60	0xbc7ba2bc	-0.015358623
61	0x3cecbb1e	0.028897818
62	0xbd3dfe09	-0.046384845
63	0x3d25d9ab	0.040490787
64	0xbbba8054	-0.0056915674
65	0xbd1d1c95	-0.038357336
66	0x3c6839d4	0.014173944
67	0xbc81b6fa	-0.01583432
68	0xbd52ad7e	-0.051434986
69	0x3d0429fc	0.032266602
70	0x3c7244d6	0.01478692
71	0x3c9817b6	0.018565994
72	0x3b1a17a2	0.0023512621
73	0x3bdf3d04	0.0068126936
74	0xbc1be495	-0.009514947
75	0xbd804290	-0.06262696
76	0xbd840609	-0.064464636
77	0x3d2a405a	0.041565277
78	0x3c3c88c2	0.011507215
79	0x3d36a7f1	0.044593755
80	0xbc92b13d	-0.01790678
81	0xbbc89b6b	-0.006122043
82	0xbc3bca07	-0.011461741
83	0x3cd98cae	0.02655634
84	0x3d0609e1	0.032724265
85	0x3d164571	0.03668732
86	0xbd285366	-0.04109516
87	0x3c339122	0.010959895
88	0xbce8e258	-0.028428242
89	0x3d5808ac	0.052742645
90	0x3d6a2ee5	0.05717363
91	0xbc916bda	-0.017751623
92	0xbcda5ee1	-0.02665657
93	0x3b8e9905	0.0043517374
94	0x3cbd8ea3	0.023139304
95	0xbd11c2f9	-0.03558633
96	0xbcb6a3ba	-0.022294868
97	0x3c1e8dfa	0.009677405
98	0x3cdaff39	0.026733028
99	0x3d08fae3	0.03344239
100	0xbd2423d5	-0.040073235
101	0xbd72550d	-0.059163142
102	0x3d2db88c	0.042412326
103	0xbd1ab8de	-0.03777396
104	0xbd2d996f	-0.042382654
105	0x3cee75c0	0.029108882
106	0x3d06f261	0.032945994
107	0x3ae732b9	0.0017639018
108	0xbcaf2eca	-0.021384615
109	0x3ca67b4d	0.020322466
110	0x3ce18799	0.027530478
111	0x3d1153ef	0.035480436
112	0x3c4d3e2a	0.012527028
113	0x3cd74a67	0.026280595
114	0xbd2239c6	-0.03960588
115	0xbc444b11	-0.011980788
116	0x3d162745	0.036658544
117	0x3cbd0f0e	0.023078468
118	0xbd394297	-0.04522952
119	0x3d4be9e4	0.049783602
120	0x3b9e0351	0.0048221727
121	0x3ac517b0	0.0015036967
122	0x3d3dff84	0.046386257
123	0x3d1058a7	0.035240795
124	0xbd0de3f3	-0.034641217
125	0xbc66cc8d	-0.014086855
126	0x3c36a276	0.011147132
127	0xbcd9dcb9	-0.026594507
128	0x3ca1ef6c	0.019767486
129	0xbd19de42	-0.037565477
130	0x3ce3d455	0.027811209
131	0x3c1f42d4	0.009720523
132	0x3d405763	0.04695834
133	0x3ce8f1a4	0.028435536
134	0x3d076696	0.033056818
135	0xbcc10f5b	-0.023566892
136	0x3d30777d	0.043082703
137	0x3b527ac8	0.003211664
138	0x3c8a335d	0.016870195
139	0xbd4945cd	-0.049138833
140	0x3d54b188	0.05192712
141	0x3a81e03c	0.0009908746
142	0x3d420e5a	0.047376968
143	0xbd80f749	-0.06297166
144	0x3ca3fff1	0.020019503
145	0x3d52aefe	0.051436417
146	0xbd433b60	-0.047664046
147	0xbd063e96	-0.03277453
148	0x3b80f23e	0.0039351275
149	0x3d193ea8	0.03741327
150	0x3bc04c4b	0.00586847
151	0xbcd4aa6c	-0.02596017
152	0x3bc8efe6	0.0061321137
153	0xbc38b778	-0.011274211
154	0xbc1c8a55	-0.009554465
155	0xbc2d5cc1	-0.010581196
156	0xbd564848	-0.052315027
157	0x3b91bf6a	0.004447867
158	0xbd29fa6b	-0.041498583
159	0xbd3e1837	-0.04640981
160	0xbc8982b8	-0.016785964
161	0xbcc94509	-0.024569051
162	0x3cbf6bb5	0.023366788
163	0x3cb1502f	0.02164468
164	0xbc976603	-0.01848126
165	0xbd81c1ba	-0.063357785
166	0x3bb04720	0.0053795725
167	0xbc614038	-0.013748221
168	0xbd95fb20	-0.07323289
169	0xbd1061ac	-0.035249397
170	0xbd0c1924	-0.034203663
171	0x3d2592c3	0.040423166
172	0x3b7f16db	0.0038923535
173	0xbd4a8cd0	-0.049450696
174	0x3d1f1934	0.038842395
175	0x3c6ad3d9	0.014332735
176	0x3bf7f38e	0.007566876
177	0xbd046c23	-0.03232969
178	0xba6ee166	-0.00091125665
179	0xbcc9b13a	-0.024620641
180	0x3d8a9b08	0.06767851
181	0x3cd0fd03	0.02551127
182	0x3d70c8c1	0.058785204
183	0x3d619eda	0.055083133
184	0x3da76bad	0.081748344
185	0x3cfafb4a	0.030637402
186	0xbc36f37c	-0.01116645
187	0x3ce1076e	0.027469363
188	0x3d44c6ec	0.04804127
189	0x3d9076cd	0.070539095
190	0x3d8f996d	0.070116855
191	0xbbc5aa0b	-0.0060322336
192	0x3c715159	0.014728867
193	0x3d2fa833	0.042885017
194	0x3b1dd6cc	0.0024084328
195	0x3cebe32d	0.02879485
196	0xbd29b627	-0.04143348
197	0xbd7d33cb	-0.06181697
198	0x3c79ee77	0.015254608
199	0x3d4d7e09	0.050169025
200	0xbcbd8677	-0.023135407
201	0xbd5c8918	-0.05384168
202	0xbd0b5857	-0.034019794
203	0xbd0fe9d7	-0.035135116
204	0xbb548153	-0.0032425716
205	0x3b83feb1	0.0040281643
206	0xbd6de149	-0.058076177
207	0x3c1b43ee	0.009476645
208	0x3d839a2b	0.064258896
209	0x3d4da7cc	0.05020885
210	0xbd1182a6	-0.035524987
211	0xbd21bc8b	-0.03948645
212	0xbac06db1	-0.0014681128
213	0x3d4982ef	0.049197134
214	0x3c082245	0.008308952
215	0x3d1ca0b8	0.03823921
216	0xbb96a85c	-0.0045977067
217	0x3d3978a5	0.04528107
218	0x3d14f3ed	0.03636544
219	0xbbe9d0d4	-0.00713549
220	0x3c91e276	0.01780818
221	0x3d127507	0.035756137
222	0xbcba7407	-0.022760404
223	0xbc885081	-0.01663995
224	0xbbd90757	-0.0066231894
225	0x3c9894d7	0.01862566
226	0x3d7aa6cc	0.061194226
227	0x3b7cff55	0.0038604338
228	0x3d848c4d	0.06472073
229	0x3d6cceb1	0.057814304
230	0x3d4a6f90	0.0494228
231	0x3d8cb048	0.068695605
232	0x3d9f6e3a	0.07784696
233	0x3d3658a7	0.04451814
234	0x3d0a78e4	0.033806697
235	0xbd213ab2	-0.039362617
236	0x3d6ecc72	0.058300443
237	0x3d2af8ec	0.041741297
238	0x3c601f2a	0.013679305
239	0xbca2b4a4	-0.019861527
240	0x3d4fb31e	0.05070793
241	0xbd818757	-0.06324642
242	0x3ba9d678	0.0051830374
243	0x3c08aacf	0.008341505
244	0x3d5bcf4e	0.053664498
245	0xbb53c8fa	-0.0032315836
246	0xbc993688	-0.01870276
247	0xbd3de188	-0.04635766
248	0xbccb8849	-0.02484526
249	0xbd55a9d8	-0.05216393
250	0x3ccd2ac3	0.025044804
251	0x3c33d3dd	0.010975805
252	0xbceb23f9	-0.028703677
253	0xbd03f41d	-0.032215226
254	0xbc850d27	-0.016241623
255	0xbd610b35	-0.05494233

fc1.bias f4 [50]
0	0x3d8eb5b0	0.06968248
1	0xbb24bfc8	-0.0025138725
2	0x3cd8de86	0.026473295
3	0x3d6093f1	0.054828588
4	0xbd73a24c	-0.05948095
5	0x3c47a494	0.012185235
6	0x3d4cf6f4	0.0500402
7	0xbdc6593f	-0.09684991
8	0x3cc578a8	0.024105385
9	0x3bd8435a	0.006599826
10	0x3d0b9599	0.034078214
11	0x3d051667	0.032492068
12	0xbbccee2b	-0.006253978
13	0xbc60a26a	-0.0137105975
14	0x3d87a624	0.06623486
15	0xbd369a0c	-0.044580504
16	0xbbabd785	-0.005244198
17	0xbd30930f	-0.043108996
18	0x3cbd3726	0.023097586
19	0xbd4175e7	-0.04723158
20	0x3dd3ea1f	0.103473894
21	0x3b3684e3	0.0027850203
22	0xbc488043	-0.012237611
23	0xbd5ba6c7	-0.05362585
24	0xbbcdb5d7	-0.0062777805
25	0x3dc24c4d	0.094872095
26	0x3c813b0c	0.015775226
27	0x3c78bee0	0.015182227
28	0x3d76cdc3	0.060254823
29	0x3a7420d6	0.0009312754
30	0x3aa6b00b	0.001271726
31	0x3d01c70f	0.031683978
32	0xbc3e6d82	-0.011622788
33	0xbb9ee232	-0.004848742
34	0xbd12483f	-0.03571343
35	0xbd4028c1	-0.046913866
36	0x3d99a690	0.075024724
37	0xbd9191a9	-0.071078606
38	0xbce46b9c	-0.027883343
39	0xbd0b5bf2	-0.034023233
40	0x3a643d49	0.0008706642
41	0x3d180d3d	0.037122
42	0x3b86f247	0.004118237
43	0xbb6e86db	-0.0036396298
44	0x3d9f72e2	0.07785584
45	0x3cd6bb8b	0.026212474
46	0x3c54eeb0	0.012996361
47	0x3b8a400f	0.004219062
48	0x3d21714d	0.039414693
49	0x3d2b9218	0.041887373

fc2.weight f4 [2, 50]
0	0xbe333509	-0.175007
1	0xbd1a90e0	-0.03773582
2	0x3dfab75e	0.12242006
3	0xbda9af6d	-0.08285413
4	0x3ed2c0fd	0.41162863
5	0xbdce6afa	-0.10078998
6	0xbe80c4e2	-0.2515021
7	0x3ed920cf	0.42407843
8	0x3d109865	0.035301585
9	0x3e0e813e	0.1391649
10	0xbd9fc4fa	-0.07801242
11	0xbdee905b	-0.11648627
12	0xbd1471c6	-0.036241315
13	0x3d8ba376	0.06818287
14	0xbe27349c	-0.16328663
15	0x3ed211e2	0.41029269
16	0xbd7e53b4	-0.062091544
17	0x3dc2c638	0.095104635
18	0xbe252e6e	-0.16130993
19	0x3d347bbd	0.04406332
20	0xbe680f26	-0.22662029
21	0xbdb787f4	-0.08961478
22	0xbde75395	-0.11295239
23	0x3dd2a8f8	0.102861345
24	0x3d668722	0.056281216
25	0xbd87eabe	-0.066365704
26	0x3d926f3d	0.07150123
27	0x3b63e7b7	0.0034775564
28	0xbe41f66d	-0.1894166
29	0xbd975ee0	-0.07391143
30	0x3e064e3c	0.13115782
31	0xbe0585b5	-0.13039286
32	0xbda01cd5	-0.07817999
33	0x3cea6be0	0.028615892
34	0x3dbeec20	0.09322381
35	0x3e79fd4d	0.24413033
36	0xbd01346c	-0.031544134
37	0x3e4619a0	0.19345713
38	0xbdfde1f4	-0.12396613
39	0x3e46f1fb	0.19428246
40	0xbdfddd00	-0.12395668
41	0xbd259391	-0.040423933
42	0xbcca07bf	-0.024661897
43	0x3dfd074a	0.12354906
44	0xbe0e322f	-0.13886331
45	0x3db09f4c	0.086241335
46	0x3e06c6b7	0.13161741
47	0xbca4cfcd	-0.020118618
48	0xbb8e00a0	-0.0043335706
49	0xbdfdec24	-0.12398556
50	0x3e6f4dc4	0.23369509
51	0x3dedacc7	0.1160522
52	0x3dff9f5c	0.12481567
53	0x3cc4474e	0.023959782
54	0xbed588ed	-0.4170603
55	0xbce10d1d	-0.027472073
56	0x3e56fcc4	0.2099486
57	0xbee9ffe2	-0.45703036
58	0xbbf3886e	-0.007432035
59	0x3d7fcdde	0.06245219
60	0x3e09bc05	0.1345063
61	0xbcc087e2	-0.023502294
62	0xbd6748f3	-0.056466054
63	0x3d0f994d	0.03505831
64	0x3d955177	0.07290929
65	0xbececfb5	-0.40392843
66	0x3b222939	0.002474381
67	0xbd5c6bdf	-0.05381381
68	0xbdabe422	-0.08393122
69	0xbde29b0a	-0.110647276
70	0x3e547fae	0.20751831
71	0xbe1c2be0	-0.15251112
72	0xbd34026d	-0.043947626
73	0xbd59c86e	-0.05316966
74	0x3dd053f6	0.10172264
75	0x3e7f55a6	0.24935016
76	0xbd80d549	-0.06290681
77	0x3cdde016	0.027084392
78	0x3dc3c9f2	0.095600024
79	0xbdb23333	-0.08701172
80	0xbdbbc570	-0.091685176
81	0xbcc508fe	-0.02405214
82	0xbd91eed5	-0.07125632
83	0x3d8f1c59	0.06987829
84	0x3e04fa88	0.12986195
85	0xbebb1719	-0.3654106
86	0x3e0153bf	0.12629603
87	0xbe024159	-0.1272024
88	0xbd5ec72e	-0.05438917
89	0xbe061361	-0.1309333
90	0x3dacf01a	0.08444233
91	0xbde76af2	-0.11299695
92	0x3e067ddc	0.13133949
93	0xbe3f5585	-0.18684967
94	0x3e214cef	0.15752004
95	0xbdffc83e	-0.12489365
96	0xbdc8cf54	-0.0980517
97	0xbd59f911	-0.053216044
98	0x3df2fcf5	0.11864654
99	0x3e23acfd	0.15983959

fc2.bias f4 [2]
0	0xbe8d9620	-0.276536
1	0x3e869f81	0.26293567
