mlsec_improvise_adapt_overcome/src/model.pth (torch, 90280 bytes, 8 tensors)

conv1.weight f4 [10, 1, 5, 5]
000000 30 89 ca 3d e3 a0 5a be df a6 3e be c0 a3 3a 3d
       0.09889448 -0.21350436 -0.18618344 0.04556632
000010 67 9e 95 3e 1b f6 0f be 0f d1 8f be 38 60 82 bc
       0.29222414 -0.14058726 -0.28089187 -0.015915021
000020 a6 d1 76 3e 87 26 d9 3d d5 95 2e be db 7d 27 be
       0.24103412 0.10603052 -0.17049344 -0.16356604
000030 b5 3c 09 bc 11 50 38 3e 5a f4 3c 3e 80 ac 00 be
       -0.00837629 0.17999293 0.18452588 -0.12565804
000040 f7 26 d9 bd ad bf a3 bc 93 9a ad 3e e2 19 51 b5
       -0.10603135 -0.01998886 0.33906993 -7.789623e-07
000050 e6 61 02 be 33 26 e6 bd 56 41 88 3e b5 ac 52 3e
       -0.12732658 -0.11237755 0.26612347 0.20573695
000060 7e bc 77 3e 86 70 41 3d f9 88 a4 be 38 6b 84 3c
       0.24192998 0.04722645 -0.32135752 0.016164407
000070 60 da 50 3d 07 45 46 3e 63 1b 44 3e db ff 03 be
       0.05098951 0.1936227 0.19151072 -0.1289057
000080 54 dc 6d 3e a3 2d a2 3e 47 08 0e be 86 c1 c2 3e
       0.2322858 0.31675443 -0.13870345 0.38038272
000090 f5 85 df 3e 09 f4 cf 3e 26 b2 63 3e c7 85 0e bd
       0.4365689 0.40615872 0.22235927 -0.03479555
0000a0 b0 51 98 3e 33 23 bf 3e ba b1 a2 3c aa 94 4b 3e
       0.29749823 0.37331542 0.019860137 0.1988093
0000b0 a0 2b f9 3d 41 fb df 3c 6c d9 2c 3e 4f 61 33 be
       0.12166524 0.027341487 0.16879815 -0.17517589
0000c0 f9 ea 21 be 13 66 8f 3d 43 8b af 3d 9d 5c 50 be
       -0.15812291 0.07001891 0.08571484 -0.20347829
0000d0 ba bc 9c bd b5 0a 02 3d 08 79 e3 3a ab e5 01 bd
       -0.07653184 0.031748492 0.0017354796 -0.03171317
0000e0 35 07 6f be 9a 65 70 bd d3 82 65 be d6 28 28 be
       -0.23342593 -0.058690645 -0.22413187 -0.16421828
0000f0 69 96 89 be a2 d3 f3 bc 5b e0 ee bc ac 53 28 be
       -0.26872566 -0.029764 -0.029159715 -0.16438168
000100 e5 04 22 3e 63 23 6a 3d 3d 59 89 be ad e8 96 bd
       0.1582218 0.057162654 -0.26825896 -0.07368598
000110 4e e4 f2 3d 66 6b 65 3d c5 80 f5 bd 44 a8 56 be
       0.11859952 0.056010626 -0.119874515 -0.20962626
000120 69 a3 30 be e4 81 03 3e aa 3e 4c 3e 3a f3 85 3e
       -0.17249836 0.12842518 0.1994578 0.2616213
000130 bf d1 71 3e a1 36 c5 3e 92 62 4c 3e 10 0c a2 3e
       0.23615168 0.3851824 0.19959477 0.31649828
000140 e9 4a 9f bd db f3 ab 3e bc 1a 29 3e bb c9 00 3f
       -0.0777796 0.33584484 0.16514105 0.50307816
000150 94 68 ef 3e 76 5f b9 3d 3f 56 2a 3e 51 d2 c3 3c
       0.46759474 0.09051411 0.16634463 0.023903998
000160 7d 2b fa bd dd ae 4a 3e 9d fa 6d be 11 15 19 be
       -0.12215326 0.19793268 -0.23240133 -0.14949442
000170 22 4e 9d be 00 0d 40 be 93 46 04 3d b6 9c 0f bd
       -0.30723673 -0.18754959 0.032293867 -0.03506156
000180 ea 41 c0 be 84 c9 86 be 31 cf f5 bd 52 ec 58 3d
       -0.37550288 -0.2632562 -0.12002409 0.052959748
000190 ed 16 62 3d b0 cb 15 3e e8 8e c0 3e ec 82 8a 3e
       0.055197645 0.14628482 0.3760903 0.2705301
0001a0 f7 7f 93 3e 6c 33 3e be 0d ee 33 3e a3 db bc 3e
       0.28808567 -0.18574303 0.17571278 0.3688632
0001b0 3f a0 80 3e d3 8e 9f 3e 01 04 2c be d3 4e d9 bd
       0.25122258 0.31163654 -0.16798402 -0.10610738
0001c0 9d 56 01 3e 7b a8 07 3f 6e a4 34 3e f8 85 10 be
       0.12630697 0.52991456 0.1764085 -0.14113605
0001d0 6d 3a 40 be 96 91 8e bc d3 11 06 3f ac 17 c3 3e
       -0.18772288 -0.017403405 0.5237095 0.38103998
0001e0 5b 26 9f be cd a1 1d 3d 58 7c 54 3e c4 c0 b7 3e
       -0.3108395 0.038484383 0.20750558 0.35889256
0001f0 4f 24 66 3e 9e 18 7a 3e 8d bf 54 3e 42 41 cf bc
       0.22474788 0.24423453 0.20776196 -0.025299672
000200 ad 3c a2 3e 58 d6 7d 3e 1b 14 f6 bd c7 6e 18 be
       0.31686917 0.24788797 -0.120155536 -0.14886008
000210 3f 1a d2 bc 06 c8 7a 3d c2 fc 8a 3e 17 34 94 bc
       -0.02564728 0.061225913 0.27145964 -0.018091245
000220 e0 12 94 be e5 f4 46 bd 6a 8d 9f 3e 39 dd af 3e
       -0.2892065 -0.048573393 0.31162578 0.34348467
000230 a2 3f b4 be 5e 52 d6 bd 0b 96 ae bc 0c fe c9 3d
       -0.35204798 -0.10464929 -0.02131178 0.09862909
000240 e3 fd a7 3e 15 d5 9f be 44 03 a7 bd 9f de 0c 3e
       0.32810888 -0.31217256 -0.0815492 0.13756798
000250 c1 65 7f 3e 6b c5 1b 3e 1a ed fb bd 24 3c 80 3d
       0.2494116 0.15212028 -0.12301083 0.06261471
000260 5b 2c 2a be 40 56 05 be 87 e8 1b be 57 28 5c 3d
       -0.16618483 -0.13021183 -0.15225421 0.05374941
000270 8f 90 1d be 6a 63 32 3e 96 5e 6a 3e 60 51 2b 3e
       -0.15387176 0.17420736 0.22887644 0.16730261
000280 76 6d 96 3b e8 ba 3a be 76 3f bd 3d ae a1 0b 3e
       0.0045906855 -0.18235362 0.0924062 0.13635895
000290 00 a9 12 3d d7 ca 0f 3e 48 9e 02 be 71 a8 10 be
       0.035805702 0.14042221 -0.12755692 -0.14126755
0002a0 d6 70 4f be 3c c0 e2 3c b7 c1 ca bd 66 b8 1f 3e
       -0.20257887 0.027679555 -0.099002294 0.15597686
0002b0 c3 f7 f6 3d b4 03 65 bd 88 21 ee bc 6d 5b 26 3e
       0.120589755 -0.055911735 -0.029068723 0.16245814
0002c0 62 a4 b0 3d 85 3d 18 3e 34 24 85 3e 8a 67 73 3e
       0.086251035 0.14867218 0.26004183 0.23769966
0002d0 54 01 be 3e ca bd 99 3e 9d 11 d9 3e bf d4 77 3e
       0.37110388 0.3002761 0.4239625 0.2420225
0002e0 f0 b7 4c 3e fc d2 09 3f 2e d1 fd 3e c2 f1 b6 3e
       0.19992042 0.5383756 0.49573654 0.35731322
0002f0 e2 73 09 3e 05 30 54 3e da f0 c0 3e 4e 95 df 3e
       0.13423112 0.20721443 0.37683755 0.43668598
000300 11 50 00 3e c8 97 41 be fe 1d 57 be f6 3f 09 3e
       0.12530543 -0.18905556 -0.21007535 0.13403305
000310 f3 8a ab 3d 23 94 5b bd 5b c2 0a be de 3a 12 be
       0.08376112 -0.05360807 -0.13550703 -0.14280269
000320 45 c2 d6 bd 01 91 16 bd 87 c9 1f bc d6 1a 0e 3e
       -0.10486273 -0.03675938 -0.009752638 0.13877425
000330 3d a6 dc bd ba 54 95 bd f8 b6 af 3d 84 3d bf bd
       -0.10773895 -0.07291551 0.085798204 -0.09337905
000340 80 fa c5 bd 44 dc 73 3e 07 bd 7c bd 58 af 59 bd
       -0.0966692 0.23814493 -0.061703708 -0.053145736
000350 e0 fc 45 3e 24 9b b3 3c 5e de 5f 3e 3f 28 52 bd
       0.19334745 0.021924563 0.2186217 -0.051307913
000360 f2 27 ad bd 76 53 30 3c b0 f2 83 3e 38 1a 56 bd
       -0.084548846 0.010762086 0.25771093 -0.052271098
000370 76 8d 8d 3e 39 60 62 3e 58 b8 91 bc 6d 7a c3 bd
       0.2764699 0.22107019 -0.017788097 -0.09544835
000380 89 03 2d be 29 87 90 3e b5 34 aa 3c fc 35 3c 3e
       -0.1689588 0.2822812 0.020777086 0.18379968
000390 1f 0e 6d 3e 19 c2 24 3e a5 c8 2e 3e 21 74 06 3f
       0.23149918 0.16089667 0.17068727 0.5252095
0003a0 a3 3b a2 3e 76 8a f6 3e 4a 84 72 3e 9f ec ba 3e
       0.31686124 0.48152512 0.23683277 0.36508653
0003b0 59 92 f4 3e e9 59 e1 3e 6a d0 87 3e ff d4 22 3e
       0.47767904 0.44013909 0.26526195 0.15901564
0003c0 7c f2 57 be 0b 5f 3f bd 9c 80 2f be 86 30 80 3e
       -0.21088594 -0.0467215 -0.17138904 0.2503702
0003d0 e5 fd d3 3d d8 52 b7 bd 33 f8 d5 be e0 d9 26 be
       0.10351161 -0.08951348 -0.41790923 -0.1629405
0003e0 68 91 57 be f2 89 14 3e
       -0.21051562 0.14505747

conv1.bias f4 [10]
000000 e0 9f 1b be 63 c2 da ba d0 68 78 3e 91 0d 68 3c
       -0.15197706 -0.0016690012 0.24258733 0.014163391
000010 84 35 68 bd 6c 11 c4 bc 2a 44 01 be be ac 0b bb
       -0.05669166 -0.023934089 -0.12623659 -0.002131268
000020 d8 cf cf 3d 6a 88 77 3d
       0.10147065 0.06043283

conv2.weight f4 [20, 10, 5, 5]
000000 dd 12 4d bd 11 20 5e 3d 84 9d 4e 3d 7d 19 81 3d
       -0.050066818 0.0542298 0.050443187 0.0630369
000010 c7 1b 08 3c af ce c8 bc 6c 79 57 3c 72 55 67 3d
       0.008307404 -0.024512617 0.013151508 0.05647797
000020 45 01 0b bd d9 4f b6 bb 9e 0e 3c 3c 9c 2f a4 3a
       -0.033936758 -0.005563718 0.011478094 0.0012526396
000030 a0 26 a0 39 5b d0 62 bc 4d 65 80 bd 89 fc d9 3c
       0.00030546356 -0.013843621 -0.062693216 0.026609676
000040 62 39 e0 3c 1e 60 a5 3a 15 4c a4 bc 4b 26 1d bd
       0.027371112 0.0012617146 -0.02005581 -0.038366597
000050 32 7f 1d bd 8a 30 f1 3c 93 dd 7c 3c c9 a8 f2 bd
       -0.03845138 0.02944209 0.015433687 -0.118485995
000060 b9 a4 16 bd 1c 53 fd bc 5e 82 8e bd 88 57 86 3d
       -0.036778186 -0.030923419 -0.06958459 0.06559664
000070 e9 61 fa 3d bc 9d aa 3d f0 1d 45 bc 17 ec 85 3c
       0.12225706 0.08330867 -0.012031063 0.016347928
000080 b2 e7 98 3d 6b ec 0a bd eb da 30 3c cb 71 a9 3c
       0.074660674 -0.033916872 0.010794382 0.020684144
000090 10 bb bb 3d d6 10 7c bd 7e 74 3e 3d c0 9c a3 3d
       0.09166539 -0.061539494 0.046497814 0.07988882
0000a0 c6 5a 45 bd 8d e8 8a bd 04 90 a4 bc a4 9f aa bc
       -0.04818227 -0.06782637 -0.020088203 -0.020828076
0000b0 36 03 a2 3d e9 6a 97 bd a4 ed a6 bd ab d0 d4 bd
       0.07910769 -0.07393438 -0.08150795 -0.10391363
0000c0 f8 bd 8e bd 82 ca b1 bd 85 2a 8b 3c 72 cc 12 3d
       -0.069698274 -0.086812034 0.016988048 0.035839505
0000d0 71 f4 f9 bc 7a de d3 bb 98 c3 15 bd ed 43 44 3d
       -0.030512067 -0.0064657303 -0.036563486 0.04791634
0000e0 32 de ff 3c e1 c5 a5 3d 42 aa 81 3d b5 15 10 3b
       0.03123388 0.08094383 0.06331302 0.0021985595
0000f0 d6 d6 85 3c 81 d2 4d 3d 4e 3f 36 3d 57 c0 85 3d
       0.016337793 0.05024958 0.044493966 0.065308265
000100 19 7b a6 bd 71 16 bb 3c d1 a3 37 bd cf 89 0e bc
       -0.08128948 0.02283785 -0.044833962 -0.008699848
000110 c8 6a 42 3c 1e 51 b1 bd 56 24 81 bd 7e e1 f9 bc
       0.011866279 -0.0865805 -0.06305759 -0.03050303
000120 b3 16 ca 3c 86 71 73 3c 70 e6 b8 3c 30 18 c6 bc
       0.024669027 0.014858609 0.022570819 -0.024181455
000130 7f 90 23 3b 1a 82 e3 bd 5f 34 87 3d 87 5c 9c 3d
       0.0024957953 -0.11108799 0.06601786 0.07634836
000140 5a 53 d3 bd a5 02 84 bd 81 f5 37 bc c2 e4 35 bc
       -0.103186324 -0.06445817 -0.011227966 -0.011101903
000150 30 64 fd 3b d7 9d ad bd 31 1e 5c bd c7 aa 71 bd
       0.0077328905 -0.08477371 -0.05373973 -0.059000757
000160 7c cf e2 3c a0 a4 24 3d 41 71 d1 3b 07 02 aa 3d
       0.027686827 0.04019606 0.0063916747 0.08301168
000170 04 8e a4 3d cd b4 a2 3d 8a d3 ce 3c 27 9c aa bc
       0.080349 0.07944641 0.025247354 -0.020826412
000180 08 21 44 3d 29 90 61 3c 03 7f c0 3d b8 3d a2 3d
       0.047883064 0.013767281 0.093992256 0.07921928
000190 5f a4 19 be 97 76 9c bb c1 37 04 3e 36 bc 2c 3c
       -0.15004109 -0.004774879 0.12911893 0.01054292
0001a0 f6 3e 2d bd 80 af 70 bb 16 59 ed 3d a3 6c 88 3d
       -0.042296372 -0.00367257 0.115892574 0.06661346
0001b0 d0 29 d9 bd e6 81 ab bb 49 95 12 3d d7 cb 02 3e
       -0.10603678 -0.005233991 0.0357869 0.12773071
0001c0 26 97 84 3d f7 0a 02 3b 70 a6 ba bd 19 9f ba bc
       0.06474142 0.0019842961 -0.09113777 -0.022780942
0001d0 94 11 4b 3d e5 d2 b4 3c fd 03 35 3d b6 b6 87 bd
       0.04957731 0.022073219 0.044193257 -0.06626646
0001e0 d3 73 74 bd ba 6e bc bd f2 77 d4 ba f3 b4 9c bb
       -0.05968077 -0.09200807 -0.0016210063 -0.004782313
0001f0 da 7c 29 bd 28 fa 79 3c fe d0 e0 3d 4c 0b bb 3d
       -0.041378833 0.015257396 0.10977362 0.09133014
000200 8e ff 17 bd 69 67 00 bd 9e 36 39 bd 3b 57 6b 3d
       -0.03710895 -0.03134862 -0.045218103 0.057456236
000210 fa 29 8a bc e7 3e 5d 39 26 90 51 bd ef 74 f9 bc
       -0.01686572 0.00021099635 -0.05116286 -0.030451266
000220 ea 3d ab bc 23 b8 50 3d 70 21 f9 3b c5 d6 33 bd
       -0.020903546 0.050956856 0.007602863 -0.043905992
000230 dd bc 20 bd 83 59 27 3c ea 9b 45 bd b1 46 bd 3c
       -0.039242614 0.010214212 -0.048244394 0.023104997
000240 4b 18 82 bd fd f8 c6 bd ac 11 1b bd ef c6 4a bd
       -0.0635229 -0.097154595 -0.03785865 -0.049506124
000250 73 61 3c bd 58 e0 eb 3b 9c dd 7d bd f3 81 23 3c
       -0.045991372 0.0071983747 -0.06197892 0.009979713
000260 6d ac be 3c 05 e7 15 bd 8a 1f 31 bd e7 e1 db bc
       0.023275578 -0.03659727 -0.04324297 -0.026841117
000270 2c 74 80 bd 99 b3 4d bd 6f 34 e4 3c e1 c4 6d 3d
       -0.06272158 -0.050220106 0.027857034 0.058049086
000280 02 cd 15 3d b1 5b f6 3b 22 4a 29 3d 64 73 1f 3d
       0.036572464 0.0075182547 0.041330464 0.038928404
000290 cb c6 39 bd 6e 2d 7f bd 2a 0e 14 3d 2d 3d 5f bd
       -0.0453556 -0.062299185 0.03614632 -0.0545017
0002a0 94 97 3c bb e4 37 92 3c e4 9a dd 3c 61 a3 18 bd
       -0.002877687 0.017848916 0.027051397 -0.037265185
0002b0 f9 f4 05 bd 5b 2e 66 3c 73 a8 26 3d 21 12 e9 bd
       -0.032704327 0.014049138 0.04068799 -0.11380411
0002c0 9e 72 05 be 28 51 57 3d 59 92 46 3e 73 d5 9b 3d
       -0.13032004 0.05256763 0.19391765 0.076090716
0002d0 0d 52 2e be 19 cd f3 bc a8 f3 f0 3d a1 e2 f2 3d
       -0.17023487 -0.029760884 0.11765224 0.11859632
0002e0 e3 7e da bc e0 c7 71 bc 50 c6 c3 bc a5 a5 d6 3d
       -0.026671832 -0.014757127 -0.023898274 0.10480813
0002f0 2c d0 09 bc e8 37 70 bc bd 9f e1 bb f1 78 8b bd
       -0.008411448 -0.014661767 -0.0068854974 -0.06810177
000300 18 2c 11 bd 2e 0c da 3c 61 9c c6 3d 8f 0a 82 bd
       -0.03544244 0.026617136 0.09697796 -0.0634967
000310 40 0e 74 bd 8e c2 13 be 42 16 e5 bd ec d8 a0 bd
       -0.059583902 -0.14429685 -0.11185886 -0.078538746
000320 6a 57 d1 3c b7 f8 5d 3d e3 a8 89 3c 2e 1d 2e 3c
       0.025554378 0.05419227 0.016804164 0.010627074
000330 b4 6d 33 bd 48 5f 08 3d d1 4b 6e bb 78 df 52 bd
       -0.043805793 0.033293992 -0.0036361108 -0.051482648
000340 fd d5 01 3c 35 9e 06 3c 76 62 ac bc b1 e3 63 bd
       0.007924554 0.00821643 -0.021043044 -0.055637065
000350 ab 58 45 3d 8e 11 3e 3d c2 21 ee 3c a6 c4 f7 3c
       0.048180263 0.04640346 0.029068831 0.030245136
000360 ce cb f9 bc 37 35 2d bd 8e 3f 3e bb d0 f7 3a 3d
       -0.03049269 -0.042287078 -0.002902958 0.04564649
000370 34 a8 ec 3b 7f ed 83 bd b9 ed 61 bc 74 f5 09 3c
       0.0072222 -0.06441783 -0.013789588 0.008420337
000380 97 46 30 bd 8a 8c 00 3c 67 d0 a7 bd ed 70 44 bc
       -0.04303607 0.007846007 -0.081940465 -0.011989814
000390 a0 5b 43 3d d0 f3 be 3c f5 d8 be bd 44 20 9c 3c
       0.047694802 0.023309618 -0.09318725 0.019058354
0003a0 22 d6 86 3c 77 3a bc bc cc 04 34 bd c8 6f a9 3c
       0.016459528 -0.022977097 -0.043949887 0.020683184
0003b0 88 c4 a9 3d af ba 80 3c 84 bf e4 bb 2c 9c a9 bc
       0.082894385 0.015714018 -0.0069808383 -0.020704351
0003c0 5d ea 04 3d dc 6f bc 3d c0 0a f4 3d 0a 6e 8a 3d
       0.03245007 0.09201023 0.11916113 0.067592695
0003d0 2d b7 ed 3d 29 d2 cc bd 3d 60 29 bd 98 9e 94 bd
       0.11607204 -0.10001022 -0.041351546 -0.07256812
0003e0 4f 1a 3a 3d c0 35 05 bc 90 a9 d4 3d 76 7a 72 bc
       0.045435246 -0.008130491 0.10383904 -0.014799705
0003f0 cb d9 20 3d 43 67 41 3d af 9d 4e bd f7 09 39 3d
       0.039270204 0.04721762 -0.050443348 0.04517552

conv2.bias f4 [20]
000000 5b 3a 38 bd 03 6f 56 bb 93 51 2e bd d5 05 b6 3d
       -0.044977527 -0.0032719977 -0.042558264 0.08887831
000010 84 82 29 3d cc cb a8 3d 5a 1b d6 bc a3 dd f0 3a
       0.041384235 0.08241996 -0.02613609 0.00183766
000020 55 e4 c9 bc 95 0e 7b 3d 2d 4f 11 bc 1b 81 07 bd
       -0.02464501 0.061293203 -0.008868975 -0.03308211
000030 2c 31 8d bd 19 87 9e 3c ef 5b 08 bd 6d df 39 bd
       -0.068941444 0.019351529 -0.0332908 -0.04537909
000040 bf a4 f2 3c 39 1e 2f 3d 6d 06 e0 3d ba 4b 93 3c
       0.029619573 0.042753432 0.109387256 0.017980445

fc1.weight f4 [50, 320]
000000 9d 45 3b 3d 83 3d a7 bd 2c 49 1f 3d 34 91 d4 bc
       0.045720685 -0.08166029 0.03888814 -0.025948144
000010 ac 91 bc 3d 23 fe 4b bc 98 a8 12 3d ac a6 a1 3d
       0.09207472 -0.012450728 0.035805315 0.07893118
000020 6c 24 52 3d 9d 4d 34 bd 96 7b 60 bc f4 fc 46 3d
       0.051304266 -0.04401933 -0.01370134 0.04858108
000030 14 da 05 3d 8d 1e 84 bd d4 0b 16 3d b7 8b 81 bd
       0.03267868 -0.064511396 0.036632374 -0.063254766
000040 d9 4e 2a bc 56 12 59 3d 2e ad 0b 3c f4 9d d5 3c
       -0.010394775 0.052996002 0.008525176 0.026076294
000050 03 b8 5e bc 6e e9 46 3b 1e 7d 8d 3c 09 ef 03 3b
       -0.0135936765 0.0030351537 0.017271575 0.002013149
000060 a6 07 8f bc 89 99 20 3d 9b d5 e3 bc 56 dd 22 bb
       -0.017459702 0.039208923 -0.027811816 -0.0024851165
000070 a6 95 62 ba 4f c8 a4 bc 1a 66 90 bc a3 8f 90 3d
       -0.0008643515 -0.020115046 -0.01762681 0.070586465
000080 14 a7 6d bc 00 5e 8f 3d da 58 ba bd a6 df 3f 3d
       -0.014505167 0.07000351 -0.09098978 0.046844147
000090 79 01 2c 3d 7b 4d c3 3d ae dc 22 bd 9d cc 25 3c
       0.041993592 0.095362626 -0.039761238 0.010119584
0000a0 83 c1 41 bd 77 19 c4 3c 23 ad 2f 3d 6f 90 17 ba
       -0.047303688 0.023937924 0.042889725 -0.0005781715
0000b0 18 40 71 bd 9f 2c 10 bd 62 47 0a bd e9 64 39 bd
       -0.058899015 -0.035198804 -0.033759482 -0.04526225
0000c0 b7 21 77 ba 7c a8 96 bd 61 12 4a bd da 16 50 bd
       -0.0009427326 -0.073563546 -0.049333934 -0.050803043
0000d0 ed e0 02 3c b8 7f 83 bd 18 78 02 3c 92 fa ec bc
       0.007988197 -0.06420845 0.007963203 -0.028928075
0000e0 66 61 a4 3c 29 c8 29 bc 84 68 eb bb 34 5e 2f bd
       0.020065974 -0.010362663 -0.00718409 -0.04281445
0000f0 38 5e 91 bb 44 ca e6 bc ef 06 52 3c 4a 62 60 bc
       -0.0044362806 -0.02817262 0.012819036 -0.013695309
000100 20 8a 08 bd c4 c6 aa 3c 27 81 68 3d 92 f8 5d bc
       -0.03333485 0.020846732 0.056763794 -0.013548033
000110 60 0a 38 bc fd d3 6b 3a c4 14 53 3c 10 c5 d2 3c
       -0.011232942 0.0008996127 0.012883369 0.025728732
000120 54 0d 3c bd 9a 85 82 bb 58 cc 30 3d f1 6d 6a 3b
       -0.04591115 -0.0039832117 0.043163627 0.0035771097
000130 55 4d b7 ba b6 54 5c bd 92 03 20 3d f3 3e cc 3c
       -0.0013984839 -0.053791724 0.039065905 0.02493236
000140 ac 85 11 bd aa 85 00 3e 10 cc 12 bd 4a b1 28 bd
       -0.03552787 0.12550989 -0.03583914 -0.0411847
000150 9c 23 a6 bb b9 ff cb bb 21 ee f9 bb c2 92 0a bd
       -0.005070163 -0.006225553 -0.007627264 -0.033831365
000160 ff fd 6b 3d 00 8a 44 3d 83 ab 1a 3c cb a3 2b 3d
       0.057615276 0.04798317 0.009440306 0.041904252
000170 36 20 bf 3b 01 fc a0 3c e7 fa a5 3c b4 b1 c7 3c
       0.0058326973 0.019651415 0.020261241 0.024376728
000180 dc 51 43 3d 8b d9 60 bd 71 a9 0e bd 3e ff 1e bb
       0.04768549 -0.054894965 -0.03482956 -0.0024261023
000190 28 b0 99 3c 32 cd 0c bd 70 a3 59 3d e5 0a 22 3d
       0.018760756 -0.034375377 0.05313438 0.03956117
0001a0 ff 1a 74 3c e7 e0 eb 3c 50 4b bf bc 6f 8d 24 3c
       0.0148990145 0.028793765 -0.023351341 0.010043486
0001b0 db 66 ca bb c7 72 93 bb b2 2e 35 bc d7 55 88 bd
       -0.006176812 -0.0044997665 -0.011058496 -0.06656998
0001c0 a1 fc b1 3c 5a b0 e0 3d e2 1b a8 bd c6 38 b0 bd
       0.021726908 0.109711364 -0.08208443 -0.08604579
0001d0 c5 43 8f 3d 6e 4b 1b 3c 38 6e 7d bc 0c a0 81 bc
       0.06995348 0.009478433 -0.015468173 -0.015823387
0001e0 87 42 82 bd bf 59 60 3c a9 e0 15 bd 34 9a f6 bc
       -0.06360345 0.013693272 -0.036591206 -0.030102827
0001f0 e6 84 5c bd fd 72 61 3c f9 a7 8d bd 70 5d 0b 3d
       -0.05383768 0.0137603255 -0.06916804 0.034024656
000200 12 b8 a5 3c 1f a4 75 3d 50 f8 2a 3d 7d 31 c3 3d
       0.020229373 0.05997097 0.041740716 0.095309235
000210 8e bc e0 bb 32 19 c4 bc 86 d6 fd bc 3b dc 51 3d
       -0.006858415 -0.023937795 -0.030986082 0.05123542
000220 ea 47 4c 3d f2 f1 25 bc 64 c4 1a bd 9d 2f 52 ba
       0.04987327 -0.010128485 -0.03778495 -0.0008017959
000230 df 67 54 3d ce 09 65 bd b4 44 9f bc bd 16 1f bd
       0.05185687 -0.055917554 -0.01944194 -0.038840044
000240 ff df d6 3c bc b3 46 3c 89 5b a6 bd b5 00 78 bb
       0.026229857 0.012127813 -0.08122928 -0.0037842218
000250 52 4a 00 bc cc 78 38 bd b4 95 95 bc 29 33 fd 3c
       -0.007830219 -0.045037076 -0.01825986 0.030908184
000260 85 1d 7a 3d eb f6 1a 3d d3 fa 61 bb 77 87 b0 3d
       0.06106331 0.037833136 -0.0034481778 0.08619588
000270 0f e9 e2 bc d4 e3 15 bd 7e 77 37 bc 6a d2 12 3c
       -0.027699022 -0.036594227 -0.011197923 0.008961299
000280 75 77 89 3c 36 a8 43 3d 83 f2 7a bd 4a 9c a8 bd
       0.016780594 0.04776784 -0.061266433 -0.08232935
000290 50 a2 f8 bc d4 0f 7b bb 2c e3 73 bc 55 0e 66 ba
       -0.030350834 -0.0038308995 -0.014885705 -0.00087759394
0002a0 e1 87 bb 3c c0 76 44 3b 6c 62 6a 3d 27 24 78 3d
       0.02289194 0.0029978007 0.05722277 0.060581353
0002b0 ae c3 16 3c 52 bb 13 3d de 77 90 bc c4 23 76 3d
       0.009201927 0.036067314 -0.017635282 0.060092703
0002c0 c6 bc b7 3d d4 4d 1a bd d8 33 38 3d 5f 66 95 3d
       0.089715526 -0.03767188 0.044971317 0.07294916
0002d0 6a 7c 33 bc 88 dc 01 bc f5 45 95 3c df 71 57 bc
       -0.010954956 -0.007926114 0.018221835 -0.013149708
0002e0 4e 10 f0 bc 27 92 90 bc b5 64 80 3d 76 a4 f7 bc
       -0.02930465 -0.017647816 0.06269208 -0.030229788
0002f0 0f 7c 12 bd 88 a7 6e bd 95 25 06 bd c6 f7 3c bd
       -0.035762843 -0.05826524 -0.032750685 -0.046134733
000300 a4 7d e8 3c 81 44 96 3a e1 03 82 bc e6 ff da 3c
       0.028380223 0.0011464508 -0.01587099 0.02673335
000310 8a d0 15 3d 56 9c 99 bc f3 02 01 3d e0 ef 44 bc
       0.03657583 -0.018751305 0.031496953 -0.012020081
000320 7f a9 bd 3d 5d 58 8c bc c0 3a 83 bd 9c 6a 92 bc
       0.092608444 -0.017131979 -0.0640769 -0.017873101
000330 cc 91 75 3d 8f d3 79 bb f1 9e 1b 3d 36 56 d4 3c
       0.059953496 -0.0038120484 0.037993375 0.025920015
000340 5c e5 b9 3c 9c 80 f2 bc 19 72 4a 3c 9b 0a 0d bd
       0.022692375 -0.029602341 0.012356305 -0.034433942
000350 56 d3 08 bb c5 dd 51 3d 26 d1 0c 3d 17 08 83 3d
       -0.002087792 0.051236887 0.034379147 0.063980274
000360 96 c0 ce bb ae a0 ee 3c b2 68 85 3c 2c 2f 9b 3d
       -0.006309579 0.029129352 0.016285274 0.07577357
000370 2f 05 08 bd a2 4e 8d bd b7 29 53 bd 2f 75 00 bb
       -0.03320807 -0.06899764 -0.051553454 -0.0019601097
000380 43 d2 9d 3c 1d 94 9a bc d7 26 0c bd a7 b2 3f 3c
       0.0192653 -0.018869454 -0.034216728 0.011700309
000390 af 9f 91 3c 79 de 60 3d 46 36 8c 3c ee c1 2e 3d
       0.017776338 0.054899666 0.017115723 0.042665415
0003a0 e3 f5 75 3c 77 2a 6a 3c e1 0e 60 3b 96 f0 f5 bc
       0.015012237 0.014292351 0.0034188556 -0.030021947
0003b0 d4 93 69 3d 9b fb 15 bc dc 62 cd bc 0a 9e 90 3c
       0.057025746 -0.009154226 -0.025071554 0.017653484
0003c0 80 12 af 3c 00 c0 a3 3c 67 99 c2 bd 99 7e 23 bc
       0.021371126 0.019989014 -0.095019154 -0.009978914
0003d0 0c 3b 56 3d 8d 83 29 3d 97 9e a8 bd 9f 06 5b 3d
       0.052302405 0.041385222 -0.082333736 0.05347311
0003e0 3c 62 e4 bd 1e 16 02 3c cf ab b4 bd 60 d4 8e bc
       -0.11151549 0.007939843 -0.088218324 -0.017435253
0003f0 0d 56 90 bd 01 ec 15 bc 12 28 9a 3c 97 ac e1 bc
       -0.07047663 -0.009150506 0.018817935 -0.027548118

fc1.bias f4 [50]
000000 cd dd 0d 3c 03 73 43 bc 9e 5f 2b 3d 13 f8 d1 bb
       0.008658838 -0.011929276 0.041839235 -0.0064077466
000010 87 76 07 3a af c8 8c 3d 96 07 6a 3c a9 f8 b5 3d
       0.0005167503 0.06874215 0.014284035 0.08885319
000020 4f 2a e1 3c 3e 57 23 3d 63 4c 34 3d 36 c2 61 3d
       0.027485995 0.039878123 0.04401816 0.055116855
000030 e0 12 ae 3c 4c c5 b7 3d 33 eb a3 bc 05 2f 80 3d
       0.021249235 0.08973178 -0.020009613 0.06258968
000040 a3 c3 8e 3c 08 22 b9 bc 67 7c ab ba 87 5d 05 3d
       0.017427271 -0.022599235 -0.001308334 0.032559898
000050 cc 03 22 bb a1 ea 16 3d e2 46 90 3d 73 40 cc 3c
       -0.0024721501 0.036844853 0.0704477 0.024933076
000060 4e 48 91 3d ab fb 48 3b 13 c2 ac 3d 57 70 aa 3c
       0.07093869 0.0030667584 0.08435454 0.020805521
000070 16 3d 00 bb 91 4c 01 3e 62 71 31 3c 0c 24 95 bc
       -0.001956766 0.12626864 0.010830255 -0.018205665
000080 d0 41 87 3d 4a 10 bd bc 6e 6e f1 3d 09 10 3e 3d
       0.066043496 -0.023079056 0.11788641 0.04640201
000090 27 28 a7 bd 4c 84 f7 bb ba e6 5e bd e5 5f 87 3d
       -0.08161955 -0.007553613 -0.054419257 0.06610087
0000a0 a0 6d 23 3c 0c 52 3d 3d d7 25 36 bd 4a 6f fb 3c
       0.009974867 0.046220824 -0.04446968 0.030692715
0000b0 b5 f0 b0 3b f4 29 37 3d 79 63 27 bd c1 9b aa 3c
       0.0053997883 0.044717744 -0.04086635 0.020826222
0000c0 0a 02 11 3d a4 ad 0c 3d
       0.035402335 0.034345284

fc2.weight f4 [10, 50]
000000 c2 65 42 3c 1e de ff 3d 34 3b 21 be b8 c5 94 3d
       0.011865081 0.12493537 -0.1574524 0.07264274
000010 1d 2a 31 be 3f fd 69 be a7 c1 2c 3e bb 10 97 bd
       -0.17301221 -0.22850512 0.16870748 -0.07376238
000020 86 b0 14 be aa 0f 32 bb eb ff 4b 3d e2 07 d1 bc
       -0.14520463 -0.002716998 0.04980461 -0.025516454
000030 68 5d 9f 3e e9 94 65 3e 81 dd 0b be ac a6 9d 3e
       0.3112595 0.22420086 -0.13658716 0.30791223
000040 5a cf 63 3d 84 d5 63 3e d3 60 69 3e 6b 5d 77 be
       0.055617668 0.22249418 0.22790842 -0.2415673
000050 77 7d 71 be 40 ea 41 3c 34 e9 25 3d 3a 06 9e bd
       -0.23583017 0.011835635 0.040505603 -0.077160314
000060 67 ba 0d 3e ae ac 64 3e f8 3b 4f 3e db 68 cb 3b
       0.13840638 0.22331497 0.2023772 0.006207568
000070 72 da 63 3d 73 30 3d be da 01 96 bd 64 8e 1c 3e
       0.055628248 -0.18475513 -0.07324572 0.15288693
000080 a9 9b 99 be 8b 68 5c 3c c8 f3 63 bc c9 1b 9e 3e
       -0.30001572 0.013452659 -0.013913102 0.30880573
000090 9b 86 1b be 3f 67 8a 3e a4 92 28 be 2f aa 67 be
       -0.15188067 0.27031896 -0.16462189 -0.22623514
0000a0 c7 b8 47 3d 08 53 ab 3d 67 7a 91 bd 02 a6 92 be
       0.0487602 0.08365446 -0.071034245 -0.2864228
0000b0 ac 4f a1 be cd ab 4a 3e 35 9c c9 3d 18 06 48 bd
       -0.31506097 0.197921 0.09844247 -0.048833936
0000c0 80 80 38 be 82 05 47 3e d0 4a aa bd 68 65 9c bc
       -0.18017769 0.19435695 -0.083150506 -0.019091323
0000d0 c6 c5 b6 3e ac 29 8c be e9 0f bb 3e 2c 4c 89 3d
       0.35697764 -0.27375543 0.36535576 0.06703982
0000e0 40 31 08 be 65 91 1e bd f5 c3 89 3e a5 de 51 3d
       -0.13300037 -0.038712878 0.26907316 0.05123772
0000f0 e9 30 cc 3e 53 6b 8c 3e 68 f1 fc bd a9 83 98 be
       0.39881065 0.27425632 -0.12350732 -0.2978795
000100 76 45 61 3d 65 0d 12 be 13 c9 54 bd 06 20 15 3d
       0.054997884 -0.14262922 -0.05194957 0.036407493
000110 75 a9 47 be c9 a0 7e 3e 9c 4b 5b 3e 6c 8a 08 bd
       -0.19498236 0.24866022 0.21415561 -0.033335134
000120 19 a7 05 3e b8 47 cd 3c 58 7e 69 be 1a f7 c2 bd
       0.13052024 0.025058612 -0.22802103 -0.09519787
000130 66 dc e8 3d 2f 9e c9 3c 9c 6d 77 3d 1d 6a d5 3e
       0.11370163 0.02461156 0.060407266 0.4168252
000140 c8 0d c0 be 3f b8 f5 bc aa 02 cc 3d 7c 82 d6 3d
       -0.37510514 -0.029995082 0.09961446 0.10474107
000150 a5 3f 84 3e 6a 11 11 3e 62 3c c8 be 1e c9 82 be
       0.25829807 0.14166799 -0.39108568 -0.25544065
000160 f1 72 bb be 9d 70 b5 3d 5b 15 50 3e f6 f7 8e bd
       -0.3661113 0.0885937 0.20320646 -0.069808885
000170 a2 c3 04 3e d1 bd 27 3d e2 e6 0a bd 05 28 e6 bd
       0.12965253 0.040952507 -0.033911593 -0.11238102
000180 cd 62 ee 3d 99 dd 34 be 68 9a fb 3d 3a b3 3d bc
       0.116399385 -0.17662658 0.1228531 -0.0115783755
000190 28 b4 7b bd ae 93 51 bd d0 ce 6a 3e e8 fb da 3d
       -0.061451107 -0.05116623 0.22930455 0.106925786
0001a0 05 60 45 3d ee 3a ce bc 46 6d 93 bd fb 0a 98 be
       0.048187274 -0.025174584 -0.07198577 -0.29695877
0001b0 cb f8 ab 3d 92 ef c6 3c 12 34 ed 3d e1 ef dd 3d
       0.08397063 0.024284158 0.11582197 0.10836769
0001c0 db a7 7f be 0f ca a9 3b 31 f5 a1 3d 2f 7e 14 be
       -0.24966376 0.005181558 0.07908095 -0.1450126
0001d0 1d fd 5f 3e 07 98 20 3d 3a 73 66 3d 3d 1c 4e 3e
       0.21873899 0.039207485 0.056262232 0.2012796
0001e0 10 99 9f 3e b6 1c 51 3e c3 a2 99 bd e2 cb 8d 3c
       0.31171465 0.20421109 -0.075017475 0.017309133
0001f0 44 b9 1a be 86 4f 86 3e 42 4d 17 3e 7c dc 6e 3e
       -0.15109736 0.26232547 0.14775565 0.23326296
000200 1e f9 d3 ba 03 23 7f be 1a db 2c be d3 38 84 3c
       -0.0016172265 -0.249157 -0.16880456 0.016140377
000210 43 16 34 bc 67 9e 3f be d0 04 fb be 83 45 0d be
       -0.010991636 -0.1871277 -0.4902711 -0.13796048
000220 8f 6a 92 bd fe 91 ce 3e 37 c5 db bc 46 3b 63 be
       -0.07149231 0.40345758 -0.026827438 -0.2219058
000230 34 57 17 be df b6 84 3e 9f 2b 9a 3c 88 35 92 be
       -0.14779359 0.2592077 0.018819628 -0.28556466
000240 89 3b 7e bd 74 41 25 3e d2 dd 92 3d 69 28 83 3e
       -0.062068496 0.1613825 0.07171215 0.25616768
000250 fa b4 75 3d b5 c4 35 3e fd cf 35 be 88 a2 97 3b
       0.059987046 0.17750819 -0.17755122 0.0046275295
000260 ff 59 3d 3e db 57 83 3e 6c 36 20 3e 3d ea 84 be
       0.18491362 0.25652966 0.1564576 -0.2595996
000270 a1 b4 87 bd 4d 1b b6 bd 63 55 89 be 9b 6a 3b 3e
       -0.06626249 -0.08891926 -0.26822957 0.18302386
000280 eb 3a 16 be 6b 75 67 3e 8b 5e 29 3d 82 72 55 be
       -0.14670913 0.22603385 0.04134993 -0.20844463
000290 c2 ce 9b 3d f3 ea f9 bd fb 15 1a 3d 5a 9b 90 bd
       0.07607795 -0.12203016 0.03761862 -0.07060881
0002a0 47 d6 a9 be c8 f1 05 bd fe 12 03 be e0 6f 65 bd
       -0.33171293 -0.032701284 -0.12800214 -0.056014895
0002b0 e9 24 de 3d 19 bc ea bd ac c5 af bd b7 0a 60 be
       0.10846884 -0.11461658 -0.08582625 -0.21879087
0002c0 ab 86 6f 3e 70 cc 99 bd b1 1a 32 be 74 1f 0d 3d
       0.23391216 -0.075096965 -0.17392994 0.034453824
0002d0 d1 c7 c8 3d c6 17 84 be d7 b6 6c 3e 9c 03 6e bd
       0.09803737 -0.25799388 0.23116623 -0.05810891
0002e0 62 65 bf be 4d fb c2 3d 7e cf b7 3e 35 81 ee 3c
       -0.37382036 0.09520588 0.3590049 0.029114345
0002f0 2d ce 87 3e d5 f1 8f 3e cc c1 17 be 05 af 95 bd
       0.26524487 0.2811419 -0.14820021 -0.07308773
000300 56 fb d5 bd b9 23 60 be 02 f1 51 be 35 d3 0b be
       -0.10448329 -0.21888627 -0.20502093 -0.13654788
000310 e9 b3 92 bd 68 83 fa 3b 02 2a 52 3d 36 58 1c 3e
       -0.071632214 0.0076450594 0.051309593 0.15268025
000320 6a f2 6f 3e 37 65 0d be ec fd fa bd df 3c 21 be
       0.23432317 -0.13808142 -0.12255463 -0.15745877
000330 f8 3c 4d be 29 65 f6 3e 30 7d 1b 3b de a9 e9 3d
       -0.20042789 0.48124054 0.002372574 0.11409353
000340 88 0a b8 3d 64 27 b1 bc 3f 9c e1 bd de 4a 64 bd
       0.08986384 -0.021625228 -0.1101613 -0.05573546
000350 a2 c0 60 be f7 8f 99 3e 92 1e fa bd e2 74 27 3e
       -0.21948484 0.2999265 -0.12212862 0.16353181
000360 3d 7a 57 bd fe a8 d2 3c a1 db 28 bd 43 31 e4 3e
       -0.05260681 0.025715347 -0.04122508 0.44568834
000370 c4 43 80 3b 8f 0e 9e be 3d e5 a0 3d 74 69 64 bd
       0.0039143283 -0.30870482 0.07856224 -0.05576463
000380 d6 7f 28 3e 57 66 b0 bb 3e 0d 77 be 06 48 91 3e
       0.16455016 -0.0053832936 -0.24126145 0.28375262
000390 60 92 32 bd ab e8 0d bd f5 15 92 bb 47 46 2d be
       -0.043596625 -0.034645718 -0.004458184 -0.1692134
0003a0 41 4d 61 be 3b 74 d0 bd 4b c1 d5 3d 44 e3 45 be
       -0.22002126 -0.10178419 0.10437258 -0.19324976
0003b0 e1 6d ed 3c 0b 8f 6e be f8 b3 44 be a4 73 9e 3b
       0.028983058 -0.23296754 -0.19209278 0.004835563
0003c0 f3 98 3e be c7 34 b8 bd 52 3e d1 bd 5d 1f 1f 3e
       -0.18613033 -0.089944415 -0.10216965 0.15539308
0003d0 46 3b 7b 3e 39 92 a0 3e 75 21 73 bd c9 d5 b7 bd
       0.2453433 0.3136156 -0.05935808 -0.08976323
0003e0 38 c5 ac bd b6 24 82 3e 7d fd 0c 3d 9e 1e 02 be
       -0.08436054 0.25418633 0.034421433 -0.12706992
0003f0 9f ed 7c bd 2e e1 f1 3d 87 d2 b5 3e 98 9c cb be
       -0.06175005 0.11810528 0.35512182 -0.3976791

fc2.bias f4 [10]
000000 90 db 8b 3d 5d 70 f3 3d 91 d2 e8 bd 22 2c c9 bd
       0.068289876 0.11886666 -0.11368287 -0.09822871
000010 43 78 64 bc d6 bd bf bd 9d 67 db bd 68 3e 47 bd
       -0.013944688 -0.0936238 -0.10713122 -0.0486435
000020 ca 71 50 bd 22 44 4a bc
       -0.050889768 -0.012345346
